{"format": "torch", "nodes": [{"name": "roberta", "id": 139935328929104, "class_name": "RobertaModel(\n  (embeddings): RobertaEmbeddings(\n    (word_embeddings): Embedding(250002, 1024, padding_idx=1)\n    (position_embeddings): Embedding(514, 1024, padding_idx=1)\n    (token_type_embeddings): Embedding(1, 1024)\n    (LayerNorm): LayerNorm((1024,), eps=1e-05, elementwise_affine=True)\n    (dropout): Dropout(p=0.1, inplace=False)\n  )\n  (encoder): RobertaEncoder(\n    (layer): ModuleList(\n      (0): RobertaLayer(\n        (attention): RobertaAttention(\n          (self): RobertaSelfAttention(\n            (query): Linear(in_features=1024, out_features=1024, bias=True)\n            (key): Linear(in_features=1024, out_features=1024, bias=True)\n            (value): Linear(in_features=1024, out_features=1024, bias=True)\n            (dropout): Dropout(p=0.1, inplace=False)\n          )\n          (output): RobertaSelfOutput(\n            (dense): Linear(in_features=1024, out_features=1024, bias=True)\n            (LayerNorm): LayerNorm((1024,), eps=1e-05, elementwise_affine=True)\n            (dropout): Dropout(p=0.1, inplace=False)\n          )\n        )\n        (intermediate): RobertaIntermediate(\n          (dense): Linear(in_features=1024, out_features=4096, bias=True)\n        )\n        (output): RobertaOutput(\n          (dense): Linear(in_features=4096, out_features=1024, bias=True)\n          (LayerNorm): LayerNorm((1024,), eps=1e-05, elementwise_affine=True)\n          (dropout): Dropout(p=0.1, inplace=False)\n        )\n      )\n      (1): RobertaLayer(\n        (attention): RobertaAttention(\n          (self): RobertaSelfAttention(\n            (query): Linear(in_features=1024, out_features=1024, bias=True)\n            (key): Linear(in_features=1024, out_features=1024, bias=True)\n            (value): Linear(in_features=1024, out_features=1024, bias=True)\n            (dropout): Dropout(p=0.1, inplace=False)\n          )\n          (output): RobertaSelfOutput(\n            (dense): Linear(in_features=1024, out_features=1024, bias=True)\n            (LayerNorm): LayerNorm((1024,), eps=1e-05, elementwise_affine=True)\n            (dropout): Dropout(p=0.1, inplace=False)\n          )\n        )\n        (intermediate): RobertaIntermediate(\n          (dense): Linear(in_features=1024, out_features=4096, bias=True)\n        )\n        (output): RobertaOutput(\n          (dense): Linear(in_features=4096, out_features=1024, bias=True)\n          (LayerNorm): LayerNorm((1024,), eps=1e-05, elementwise_affine=True)\n          (dropout): Dropout(p=0.1, inplace=False)\n        )\n      )\n      (2): RobertaLayer(\n        (attention): RobertaAttention(\n          (self): RobertaSelfAttention(\n            (query): Linear(in_features=1024, out_features=1024, bias=True)\n            (key): Linear(in_features=1024, out_features=1024, bias=True)\n            (value): Linear(in_features=1024, out_features=1024, bias=True)\n            (dropout): Dropout(p=0.1, inplace=False)\n          )\n          (output): RobertaSelfOutput(\n            (dense): Linear(in_features=1024, out_features=1024, bias=True)\n            (LayerNorm): LayerNorm((1024,), eps=1e-05, elementwise_affine=True)\n            (dropout): Dropout(p=0.1, inplace=False)\n          )\n        )\n        (intermediate): RobertaIntermediate(\n          (dense): Linear(in_features=1024, out_features=4096, bias=True)\n        )\n        (output): RobertaOutput(\n          (dense): Linear(in_features=4096, out_features=1024, bias=True)\n          (LayerNorm): LayerNorm((1024,), eps=1e-05, elementwise_affine=True)\n          (dropout): Dropout(p=0.1, inplace=False)\n        )\n      )\n      (3): RobertaLayer(\n        (attention): RobertaAttention(\n          (self): RobertaSelfAttention(\n            (query): Linear(in_features=1024, out_features=1024, bias=True)\n            (key): Linear(in_features=1024, out_features=1024, bias=True)\n            (value): Linear(in_features=1024, out_features=1024, bias=True)\n            (dropout): Dropout(p=0.1, inplace=False)\n          )\n          (output): RobertaSelfOutput(\n            (dense): Linear(in_features=1024, out_features=1024, bias=True)\n            (LayerNorm): LayerNorm((1024,), eps=1e-05, elementwise_affine=True)\n            (dropout): Dropout(p=0.1, inplace=False)\n          )\n        )\n        (intermediate): RobertaIntermediate(\n          (dense): Linear(in_features=1024, out_features=4096, bias=True)\n        )\n        (output): RobertaOutput(\n          (dense): Linear(in_features=4096, out_features=1024, bias=True)\n          (LayerNorm): LayerNorm((1024,), eps=1e-05, elementwise_affine=True)\n          (dropout): Dropout(p=0.1, inplace=False)\n        )\n      )\n      (4): RobertaLayer(\n        (attention): RobertaAttention(\n          (self): RobertaSelfAttention(\n            (query): Linear(in_features=1024, out_features=1024, bias=True)\n            (key): Linear(in_features=1024, out_features=1024, bias=True)\n            (value): Linear(in_features=1024, out_features=1024, bias=True)\n            (dropout): Dropout(p=0.1, inplace=False)\n          )\n          (output): RobertaSelfOutput(\n            (dense): Linear(in_features=1024, out_features=1024, bias=True)\n            (LayerNorm): LayerNorm((1024,), eps=1e-05, elementwise_affine=True)\n            (dropout): Dropout(p=0.1, inplace=False)\n          )\n        )\n        (intermediate): RobertaIntermediate(\n          (dense): Linear(in_features=1024, out_features=4096, bias=True)\n        )\n        (output): RobertaOutput(\n          (dense): Linear(in_features=4096, out_features=1024, bias=True)\n          (LayerNorm): LayerNorm((1024,), eps=1e-05, elementwise_affine=True)\n          (dropout): Dropout(p=0.1, inplace=False)\n        )\n      )\n      (5): RobertaLayer(\n        (attention): RobertaAttention(\n          (self): RobertaSelfAttention(\n            (query): Linear(in_features=1024, out_features=1024, bias=True)\n            (key): Linear(in_features=1024, out_features=1024, bias=True)\n            (value): Linear(in_features=1024, out_features=1024, bias=True)\n            (dropout): Dropout(p=0.1, inplace=False)\n          )\n          (output): RobertaSelfOutput(\n            (dense): Linear(in_features=1024, out_features=1024, bias=True)\n            (LayerNorm): LayerNorm((1024,), eps=1e-05, elementwise_affine=True)\n            (dropout): Dropout(p=0.1, inplace=False)\n          )\n        )\n        (intermediate): RobertaIntermediate(\n          (dense): Linear(in_features=1024, out_features=4096, bias=True)\n        )\n        (output): RobertaOutput(\n          (dense): Linear(in_features=4096, out_features=1024, bias=True)\n          (LayerNorm): LayerNorm((1024,), eps=1e-05, elementwise_affine=True)\n          (dropout): Dropout(p=0.1, inplace=False)\n        )\n      )\n      (6): RobertaLayer(\n        (attention): RobertaAttention(\n          (self): RobertaSelfAttention(\n            (query): Linear(in_features=1024, out_features=1024, bias=True)\n            (key): Linear(in_features=1024, out_features=1024, bias=True)\n            (value): Linear(in_features=1024, out_features=1024, bias=True)\n            (dropout): Dropout(p=0.1, inplace=False)\n          )\n          (output): RobertaSelfOutput(\n            (dense): Linear(in_features=1024, out_features=1024, bias=True)\n            (LayerNorm): LayerNorm((1024,), eps=1e-05, elementwise_affine=True)\n            (dropout): Dropout(p=0.1, inplace=False)\n          )\n        )\n        (intermediate): RobertaIntermediate(\n          (dense): Linear(in_features=1024, out_features=4096, bias=True)\n        )\n        (output): RobertaOutput(\n          (dense): Linear(in_features=4096, out_features=1024, bias=True)\n          (LayerNorm): LayerNorm((1024,), eps=1e-05, elementwise_affine=True)\n          (dropout): Dropout(p=0.1, inplace=False)\n        )\n      )\n      (7): RobertaLayer(\n        (attention): RobertaAttention(\n          (self): RobertaSelfAttention(\n            (query): Linear(in_features=1024, out_features=1024, bias=True)\n            (key): Linear(in_features=1024, out_features=1024, bias=True)\n            (value): Linear(in_features=1024, out_features=1024, bias=True)\n            (dropout): Dropout(p=0.1, inplace=False)\n          )\n          (output): RobertaSelfOutput(\n            (dense): Linear(in_features=1024, out_features=1024, bias=True)\n            (LayerNorm): LayerNorm((1024,), eps=1e-05, elementwise_affine=True)\n            (dropout): Dropout(p=0.1, inplace=False)\n          )\n        )\n        (intermediate): RobertaIntermediate(\n          (dense): Linear(in_features=1024, out_features=4096, bias=True)\n        )\n        (output): RobertaOutput(\n          (dense): Linear(in_features=4096, out_features=1024, bias=True)\n          (LayerNorm): LayerNorm((1024,), eps=1e-05, elementwise_affine=True)\n          (dropout): Dropout(p=0.1, inplace=False)\n        )\n      )\n      (8): RobertaLayer(\n        (attention): RobertaAttention(\n          (self): RobertaSelfAttention(\n            (query): Linear(in_features=1024, out_features=1024, bias=True)\n            (key): Linear(in_features=1024, out_features=1024, bias=True)\n            (value): Linear(in_features=1024, out_features=1024, bias=True)\n            (dropout): Dropout(p=0.1, inplace=False)\n          )\n          (output): RobertaSelfOutput(\n            (dense): Linear(in_features=1024, out_features=1024, bias=True)\n            (LayerNorm): LayerNorm((1024,), eps=1e-05, elementwise_affine=True)\n            (dropout): Dropout(p=0.1, inplace=False)\n          )\n        )\n        (intermediate): RobertaIntermediate(\n          (dense): Linear(in_features=1024, out_features=4096, bias=True)\n        )\n        (output): RobertaOutput(\n          (dense): Linear(in_features=4096, out_features=1024, bias=True)\n          (LayerNorm): LayerNorm((1024,), eps=1e-05, elementwise_affine=True)\n          (dropout): Dropout(p=0.1, inplace=False)\n        )\n      )\n      (9): RobertaLayer(\n        (attention): RobertaAttention(\n          (self): RobertaSelfAttention(\n            (query): Linear(in_features=1024, out_features=1024, bias=True)\n            (key): Linear(in_features=1024, out_features=1024, bias=True)\n            (value): Linear(in_features=1024, out_features=1024, bias=True)\n            (dropout): Dropout(p=0.1, inplace=False)\n          )\n          (output): RobertaSelfOutput(\n            (dense): Linear(in_features=1024, out_features=1024, bias=True)\n            (LayerNorm): LayerNorm((1024,), eps=1e-05, elementwise_affine=True)\n            (dropout): Dropout(p=0.1, inplace=False)\n          )\n        )\n        (intermediate): RobertaIntermediate(\n          (dense): Linear(in_features=1024, out_features=4096, bias=True)\n        )\n        (output): RobertaOutput(\n          (dense): Linear(in_features=4096, out_features=1024, bias=True)\n          (LayerNorm): LayerNorm((1024,), eps=1e-05, elementwise_affine=True)\n          (dropout): Dropout(p=0.1, inplace=False)\n        )\n      )\n      (10): RobertaLayer(\n        (attention): RobertaAttention(\n          (self): RobertaSelfAttention(\n            (query): Linear(in_features=1024, out_features=1024, bias=True)\n            (key): Linear(in_features=1024, out_features=1024, bias=True)\n            (value): Linear(in_features=1024, out_features=1024, bias=True)\n            (dropout): Dropout(p=0.1, inplace=False)\n          )\n          (output): RobertaSelfOutput(\n            (dense): Linear(in_features=1024, out_features=1024, bias=True)\n            (LayerNorm): LayerNorm((1024,), eps=1e-05, elementwise_affine=True)\n            (dropout): Dropout(p=0.1, inplace=False)\n          )\n        )\n        (intermediate): RobertaIntermediate(\n          (dense): Linear(in_features=1024, out_features=4096, bias=True)\n        )\n        (output): RobertaOutput(\n          (dense): Linear(in_features=4096, out_features=1024, bias=True)\n          (LayerNorm): LayerNorm((1024,), eps=1e-05, elementwise_affine=True)\n          (dropout): Dropout(p=0.1, inplace=False)\n        )\n      )\n      (11): RobertaLayer(\n        (attention): RobertaAttention(\n          (self): RobertaSelfAttention(\n            (query): Linear(in_features=1024, out_features=1024, bias=True)\n            (key): Linear(in_features=1024, out_features=1024, bias=True)\n            (value): Linear(in_features=1024, out_features=1024, bias=True)\n            (dropout): Dropout(p=0.1, inplace=False)\n          )\n          (output): RobertaSelfOutput(\n            (dense): Linear(in_features=1024, out_features=1024, bias=True)\n            (LayerNorm): LayerNorm((1024,), eps=1e-05, elementwise_affine=True)\n            (dropout): Dropout(p=0.1, inplace=False)\n          )\n        )\n        (intermediate): RobertaIntermediate(\n          (dense): Linear(in_features=1024, out_features=4096, bias=True)\n        )\n        (output): RobertaOutput(\n          (dense): Linear(in_features=4096, out_features=1024, bias=True)\n          (LayerNorm): LayerNorm((1024,), eps=1e-05, elementwise_affine=True)\n          (dropout): Dropout(p=0.1, inplace=False)\n        )\n      )\n      (12): RobertaLayer(\n        (attention): RobertaAttention(\n          (self): RobertaSelfAttention(\n            (query): Linear(in_features=1024, out_features=1024, bias=True)\n            (key): Linear(in_features=1024, out_features=1024, bias=True)\n            (value): Linear(in_features=1024, out_features=1024, bias=True)\n            (dropout): Dropout(p=0.1, inplace=False)\n          )\n          (output): RobertaSelfOutput(\n            (dense): Linear(in_features=1024, out_features=1024, bias=True)\n            (LayerNorm): LayerNorm((1024,), eps=1e-05, elementwise_affine=True)\n            (dropout): Dropout(p=0.1, inplace=False)\n          )\n        )\n        (intermediate): RobertaIntermediate(\n          (dense): Linear(in_features=1024, out_features=4096, bias=True)\n        )\n        (output): RobertaOutput(\n          (dense): Linear(in_features=4096, out_features=1024, bias=True)\n          (LayerNorm): LayerNorm((1024,), eps=1e-05, elementwise_affine=True)\n          (dropout): Dropout(p=0.1, inplace=False)\n        )\n      )\n      (13): RobertaLayer(\n        (attention): RobertaAttention(\n          (self): RobertaSelfAttention(\n            (query): Linear(in_features=1024, out_features=1024, bias=True)\n            (key): Linear(in_features=1024, out_features=1024, bias=True)\n            (value): Linear(in_features=1024, out_features=1024, bias=True)\n            (dropout): Dropout(p=0.1, inplace=False)\n          )\n          (output): RobertaSelfOutput(\n            (dense): Linear(in_features=1024, out_features=1024, bias=True)\n            (LayerNorm): LayerNorm((1024,), eps=1e-05, elementwise_affine=True)\n            (dropout): Dropout(p=0.1, inplace=False)\n          )\n        )\n        (intermediate): RobertaIntermediate(\n          (dense): Linear(in_features=1024, out_features=4096, bias=True)\n        )\n        (output): RobertaOutput(\n          (dense): Linear(in_features=4096, out_features=1024, bias=True)\n          (LayerNorm): LayerNorm((1024,), eps=1e-05, elementwise_affine=True)\n          (dropout): Dropout(p=0.1, inplace=False)\n        )\n      )\n      (14): RobertaLayer(\n        (attention): RobertaAttention(\n          (self): RobertaSelfAttention(\n            (query): Linear(in_features=1024, out_features=1024, bias=True)\n            (key): Linear(in_features=1024, out_features=1024, bias=True)\n            (value): Linear(in_features=1024, out_features=1024, bias=True)\n            (dropout): Dropout(p=0.1, inplace=False)\n          )\n          (output): RobertaSelfOutput(\n            (dense): Linear(in_features=1024, out_features=1024, bias=True)\n            (LayerNorm): LayerNorm((1024,), eps=1e-05, elementwise_affine=True)\n            (dropout): Dropout(p=0.1, inplace=False)\n          )\n        )\n        (intermediate): RobertaIntermediate(\n          (dense): Linear(in_features=1024, out_features=4096, bias=True)\n        )\n        (output): RobertaOutput(\n          (dense): Linear(in_features=4096, out_features=1024, bias=True)\n          (LayerNorm): LayerNorm((1024,), eps=1e-05, elementwise_affine=True)\n          (dropout): Dropout(p=0.1, inplace=False)\n        )\n      )\n      (15): RobertaLayer(\n        (attention): RobertaAttention(\n          (self): RobertaSelfAttention(\n            (query): Linear(in_features=1024, out_features=1024, bias=True)\n            (key): Linear(in_features=1024, out_features=1024, bias=True)\n            (value): Linear(in_features=1024, out_features=1024, bias=True)\n            (dropout): Dropout(p=0.1, inplace=False)\n          )\n          (output): RobertaSelfOutput(\n            (dense): Linear(in_features=1024, out_features=1024, bias=True)\n            (LayerNorm): LayerNorm((1024,), eps=1e-05, elementwise_affine=True)\n            (dropout): Dropout(p=0.1, inplace=False)\n          )\n        )\n        (intermediate): RobertaIntermediate(\n          (dense): Linear(in_features=1024, out_features=4096, bias=True)\n        )\n        (output): RobertaOutput(\n          (dense): Linear(in_features=4096, out_features=1024, bias=True)\n          (LayerNorm): LayerNorm((1024,), eps=1e-05, elementwise_affine=True)\n          (dropout): Dropout(p=0.1, inplace=False)\n        )\n      )\n      (16): RobertaLayer(\n        (attention): RobertaAttention(\n          (self): RobertaSelfAttention(\n            (query): Linear(in_features=1024, out_features=1024, bias=True)\n            (key): Linear(in_features=1024, out_features=1024, bias=True)\n            (value): Linear(in_features=1024, out_features=1024, bias=True)\n            (dropout): Dropout(p=0.1, inplace=False)\n          )\n          (output): RobertaSelfOutput(\n            (dense): Linear(in_features=1024, out_features=1024, bias=True)\n            (LayerNorm): LayerNorm((1024,), eps=1e-05, elementwise_affine=True)\n            (dropout): Dropout(p=0.1, inplace=False)\n          )\n        )\n        (intermediate): RobertaIntermediate(\n          (dense): Linear(in_features=1024, out_features=4096, bias=True)\n        )\n        (output): RobertaOutput(\n          (dense): Linear(in_features=4096, out_features=1024, bias=True)\n          (LayerNorm): LayerNorm((1024,), eps=1e-05, elementwise_affine=True)\n          (dropout): Dropout(p=0.1, inplace=False)\n        )\n      )\n      (17): RobertaLayer(\n        (attention): RobertaAttention(\n          (self): RobertaSelfAttention(\n            (query): Linear(in_features=1024, out_features=1024, bias=True)\n            (key): Linear(in_features=1024, out_features=1024, bias=True)\n            (value): Linear(in_features=1024, out_features=1024, bias=True)\n            (dropout): Dropout(p=0.1, inplace=False)\n          )\n          (output): RobertaSelfOutput(\n            (dense): Linear(in_features=1024, out_features=1024, bias=True)\n            (LayerNorm): LayerNorm((1024,), eps=1e-05, elementwise_affine=True)\n            (dropout): Dropout(p=0.1, inplace=False)\n          )\n        )\n        (intermediate): RobertaIntermediate(\n          (dense): Linear(in_features=1024, out_features=4096, bias=True)\n        )\n        (output): RobertaOutput(\n          (dense): Linear(in_features=4096, out_features=1024, bias=True)\n          (LayerNorm): LayerNorm((1024,), eps=1e-05, elementwise_affine=True)\n          (dropout): Dropout(p=0.1, inplace=False)\n        )\n      )\n      (18): RobertaLayer(\n        (attention): RobertaAttention(\n          (self): RobertaSelfAttention(\n            (query): Linear(in_features=1024, out_features=1024, bias=True)\n            (key): Linear(in_features=1024, out_features=1024, bias=True)\n            (value): Linear(in_features=1024, out_features=1024, bias=True)\n            (dropout): Dropout(p=0.1, inplace=False)\n          )\n          (output): RobertaSelfOutput(\n            (dense): Linear(in_features=1024, out_features=1024, bias=True)\n            (LayerNorm): LayerNorm((1024,), eps=1e-05, elementwise_affine=True)\n            (dropout): Dropout(p=0.1, inplace=False)\n          )\n        )\n        (intermediate): RobertaIntermediate(\n          (dense): Linear(in_features=1024, out_features=4096, bias=True)\n        )\n        (output): RobertaOutput(\n          (dense): Linear(in_features=4096, out_features=1024, bias=True)\n          (LayerNorm): LayerNorm((1024,), eps=1e-05, elementwise_affine=True)\n          (dropout): Dropout(p=0.1, inplace=False)\n        )\n      )\n      (19): RobertaLayer(\n        (attention): RobertaAttention(\n          (self): RobertaSelfAttention(\n            (query): Linear(in_features=1024, out_features=1024, bias=True)\n            (key): Linear(in_features=1024, out_features=1024, bias=True)\n            (value): Linear(in_features=1024, out_features=1024, bias=True)\n            (dropout): Dropout(p=0.1, inplace=False)\n          )\n          (output): RobertaSelfOutput(\n            (dense): Linear(in_features=1024, out_features=1024, bias=True)\n            (LayerNorm): LayerNorm((1024,), eps=1e-05, elementwise_affine=True)\n            (dropout): Dropout(p=0.1, inplace=False)\n          )\n        )\n        (intermediate): RobertaIntermediate(\n          (dense): Linear(in_features=1024, out_features=4096, bias=True)\n        )\n        (output): RobertaOutput(\n          (dense): Linear(in_features=4096, out_features=1024, bias=True)\n          (LayerNorm): LayerNorm((1024,), eps=1e-05, elementwise_affine=True)\n          (dropout): Dropout(p=0.1, inplace=False)\n        )\n      )\n      (20): RobertaLayer(\n        (attention): RobertaAttention(\n          (self): RobertaSelfAttention(\n            (query): Linear(in_features=1024, out_features=1024, bias=True)\n            (key): Linear(in_features=1024, out_features=1024, bias=True)\n            (value): Linear(in_features=1024, out_features=1024, bias=True)\n            (dropout): Dropout(p=0.1, inplace=False)\n          )\n          (output): RobertaSelfOutput(\n            (dense): Linear(in_features=1024, out_features=1024, bias=True)\n            (LayerNorm): LayerNorm((1024,), eps=1e-05, elementwise_affine=True)\n            (dropout): Dropout(p=0.1, inplace=False)\n          )\n        )\n        (intermediate): RobertaIntermediate(\n          (dense): Linear(in_features=1024, out_features=4096, bias=True)\n        )\n        (output): RobertaOutput(\n          (dense): Linear(in_features=4096, out_features=1024, bias=True)\n          (LayerNorm): LayerNorm((1024,), eps=1e-05, elementwise_affine=True)\n          (dropout): Dropout(p=0.1, inplace=False)\n        )\n      )\n      (21): RobertaLayer(\n        (attention): RobertaAttention(\n          (self): RobertaSelfAttention(\n            (query): Linear(in_features=1024, out_features=1024, bias=True)\n            (key): Linear(in_features=1024, out_features=1024, bias=True)\n            (value): Linear(in_features=1024, out_features=1024, bias=True)\n            (dropout): Dropout(p=0.1, inplace=False)\n          )\n          (output): RobertaSelfOutput(\n            (dense): Linear(in_features=1024, out_features=1024, bias=True)\n            (LayerNorm): LayerNorm((1024,), eps=1e-05, elementwise_affine=True)\n            (dropout): Dropout(p=0.1, inplace=False)\n          )\n        )\n        (intermediate): RobertaIntermediate(\n          (dense): Linear(in_features=1024, out_features=4096, bias=True)\n        )\n        (output): RobertaOutput(\n          (dense): Linear(in_features=4096, out_features=1024, bias=True)\n          (LayerNorm): LayerNorm((1024,), eps=1e-05, elementwise_affine=True)\n          (dropout): Dropout(p=0.1, inplace=False)\n        )\n      )\n      (22): RobertaLayer(\n        (attention): RobertaAttention(\n          (self): RobertaSelfAttention(\n            (query): Linear(in_features=1024, out_features=1024, bias=True)\n            (key): Linear(in_features=1024, out_features=1024, bias=True)\n            (value): Linear(in_features=1024, out_features=1024, bias=True)\n            (dropout): Dropout(p=0.1, inplace=False)\n          )\n          (output): RobertaSelfOutput(\n            (dense): Linear(in_features=1024, out_features=1024, bias=True)\n            (LayerNorm): LayerNorm((1024,), eps=1e-05, elementwise_affine=True)\n            (dropout): Dropout(p=0.1, inplace=False)\n          )\n        )\n        (intermediate): RobertaIntermediate(\n          (dense): Linear(in_features=1024, out_features=4096, bias=True)\n        )\n        (output): RobertaOutput(\n          (dense): Linear(in_features=4096, out_features=1024, bias=True)\n          (LayerNorm): LayerNorm((1024,), eps=1e-05, elementwise_affine=True)\n          (dropout): Dropout(p=0.1, inplace=False)\n        )\n      )\n      (23): RobertaLayer(\n        (attention): RobertaAttention(\n          (self): RobertaSelfAttention(\n            (query): Linear(in_features=1024, out_features=1024, bias=True)\n            (key): Linear(in_features=1024, out_features=1024, bias=True)\n            (value): Linear(in_features=1024, out_features=1024, bias=True)\n            (dropout): Dropout(p=0.1, inplace=False)\n          )\n          (output): RobertaSelfOutput(\n            (dense): Linear(in_features=1024, out_features=1024, bias=True)\n            (LayerNorm): LayerNorm((1024,), eps=1e-05, elementwise_affine=True)\n            (dropout): Dropout(p=0.1, inplace=False)\n          )\n        )\n        (intermediate): RobertaIntermediate(\n          (dense): Linear(in_features=1024, out_features=4096, bias=True)\n        )\n        (output): RobertaOutput(\n          (dense): Linear(in_features=4096, out_features=1024, bias=True)\n          (LayerNorm): LayerNorm((1024,), eps=1e-05, elementwise_affine=True)\n          (dropout): Dropout(p=0.1, inplace=False)\n        )\n      )\n    )\n  )\n)", "parameters": [["embeddings.word_embeddings.weight", [250002, 1024]], ["embeddings.position_embeddings.weight", [514, 1024]], ["embeddings.token_type_embeddings.weight", [1, 1024]], ["embeddings.LayerNorm.weight", [1024]], ["embeddings.LayerNorm.bias", [1024]], ["en
…
